…
lization(name='bn3')(x)\nx = Activation('relu')(x)\nx = Flatten(name='flatte1',inputs=x)\nx = Dense(256,name='fc1')(x)\n# max_length of sentence\nx = RepeatVector(7,name='repeat')(x)\n#2*GRU the output shape is (None,7,256)\nx = Bidirectional(GRU(units=128,name='GRU',return_sequences=True))(x)\n#apply (None,7,256) to all GRUs output (None,7,16)\nx = TimeDistributed(Dense(16,name='fc2'))(x)\nx = Activation('softmax')(x)\nx = Flatten(name='Flatten2',inputs=x)\nwhen I show my summary, it print like this\nLayer (type)                 Output Shape              Param #\ninput_1 (InputLayer)         (None, 90, 30, 3)         0\nconv1 (Conv2D)               (None, 88, 28, 32)        896\npool1 (MaxPooling2D)         (None, 44, 14, 32)        0\nbn1 (BatchNormalization)     (None, 44, 14, 32)        128\nactivation_1 (Activation)    (None, 44, 14, 32)        0\nconv2 (Conv2D)               (None, 42, 12, 64)        18496\npool2 (MaxPooling2D)         (None, 21, 6, 64)         0\nbn2 (BatchNormalization)     (None, 21, 6, 64)         256\nactivation_2 (Activation)    (None, 21, 6, 64)         0\nconv3 (Conv2D)               (None, 19, 4, 64)         36928\npool3 (MaxPooling2D)         (None, 9, 2, 64)          0\nbn3 (BatchNormalization)     (None, 9, 2, 64)          256\nactivation_3 (Activation)    (None, 9, 2, 64)          0\nflatte1 (Flatten)            (None, 1152)              0\nfc1 (Dense)                  (None, 256)               295168\nrepeat (RepeatVector)        (None, 7, 256)            0\nbidirectional_1 (Bidirection (None, 7, 256)            295680\ntime_distributed_1 (TimeDist (None, 7, 16)             4112\nFlatten2 (Flatten)           (None, 112)               0\nbut when I change my codes to tf.keras like this(the architecture do not change! )\nrepeat (RepeatVector)        (None, 7, 256)            0\nbidirectional_1 (Bidirection (None, None, 256)         295680\ntime_distributed_1 (TimeDist (None, None, 16)          4112\nactivation_4 (Activation)    (None, None, 16)          0\nFlatten2 (Flatten)           (None, None)              0\nTotal params: 651,920\nTrainable params: 651,600\nNon-trainable params: 320\nthe output of bidirectional_1 is (None, None, 256), I just wonder why the GRU output was flase.\nAnd how can I change my code?",
…
    "body": "### System information\n- **TensorFlow)**:\n- **Linux Ubuntu 16.04**:\n- **TensorFlow installed from Binary**:\n- **TensorFlow version (1.4)**:\n- **Python version 3.6.3**:\nI am using tf.keras and keras but it has a different result. I am using the code below for sentiment analysis classification using imdb dataset.\n### Source code / logs\n```\r\nmodel = Sequential()\r\nmodel.add(Embedding(n_unique_words, n_dim, input_length=max_reviw_length))\r\nmodel.add(Flatten())\r\nmodel.add(Dense(n_dense, activation='relu'))\r\nmodel.add(Dropout(dropout))\r\nmodel.add(Dense(1, activation='sigmoid'))\r\nmodel.summary() \r\n```\n```\r\n_________________________________________________________________\r\nLayer (type)                 Output Shape              Param #   \r\n=================================================================\r\nembedding_1 (Embedding)      (None, 100, 64)           320000    \r\n_________________________________________________________________\r\nflatten_1 (Flatten)          (None, 6400)              0         \r\n_________________________________________________________________\r\ndense_1 (Dense)              (None, 64)                409664    \r\n_________________________________________________________________\r\ndropout_1 (Dropout)          (None, 64)                0         \r\n_________________________________________________________________\r\ndense_2 (Dense)              (None, 1)                 65        \r\n=================================================================\r\nTotal params: 729,729\r\nTrainable params: 729,729\r\nNon-trainable params: 0\r\n__________________________\r\n\r\nmodel.compile(loss='binary_crossentropy', optimizer='adam', metrics=['accuracy'])\r\nmodel.fit(x_train, y_train, batch_size=batch_size, epochs=epochs, verbose=1, validation_data=(x_valid, y_valid), callba
…
